hw3/model.ckpt (torch, 865647 bytes, 58 tensors)

prenet.weight f4 [80, 40]
000000 ae 83 a3 bb 00 da 97 be 1f f9 96 bc 20 a4 32 3e
       -0.0049900627 -0.29658508 -0.018429337 0.17445421
000010 83 1a 46 be ae 1c 09 3d 90 df cb 3b ea 46 c3 bd
       -0.19346051 0.033474617 0.006221719 -0.0953501
000020 8b d1 ae bd 03 16 d3 bd 47 2c f1 bd f0 22 1f be
       -0.08536061 -0.10306933 -0.11776023 -0.15540671
000030 9c b6 33 3e a3 fa 97 3e f2 0c f6 3a f5 63 17 be
       0.17550129 0.29683408 0.0018772169 -0.14784224
000040 e7 b9 93 3d 4e 7a 56 3e bd 67 14 3d 45 36 c2 bc
       0.072131924 0.20945093 0.036231745 -0.023707518
000050 c4 50 51 3e 9f 34 ee 3d 64 d0 6f 3d 9a 1d 31 be
       0.20440966 0.116311304 0.058548346 -0.17296448
000060 94 77 75 3d 86 65 29 3d 37 2a 10 be d4 64 da bd
       0.05992849 0.041356586 -0.14078604 -0.10663763
000070 29 50 37 be 31 46 f0 bc 93 c3 f1 3d 5b ea 78 bd
       -0.17901672 -0.029330345 0.11804881 -0.060770374
000080 df cc 4a ba a4 06 78 3d 47 01 c7 bc 8f 31 0f 3c
       -0.00077362166 0.060553208 -0.024292601 0.008739843
000090 04 91 ab 3d 27 c7 10 be b5 08 58 bd f8 43 ec bd
       0.08377269 -0.1413847 -0.05274268 -0.115364015
0000a0 64 68 3e be 1e e0 6d be a0 3a 93 be 23 4a 84 3e
       -0.1859451 -0.23230025 -0.28755665 0.25837812
0000b0 c7 f0 46 3e 2a cf fc 3c 88 db ab 3d f5 5d 54 3d
       0.19427787 0.030860502 0.08391482 0.051847417
0000c0 be 22 56 bd 17 b2 fe bc 49 1f 13 3e 65 bd 0f 3e
       -0.052279226 -0.03109078 0.14367403 0.14037092
0000d0 10 33 1d be 8a 73 7e 3d 5c 29 b7 3d 7e da f9 bd
       -0.1535151 0.062121905 0.089434355 -0.12199877
0000e0 70 df 91 bd fb 3a 85 3d f4 04 16 bd aa da 66 3d
       -0.071226954 0.0650539 -0.036625817 0.056360878
0000f0 63 99 8d 3c 55 36 50 bd fe a3 3c 3e 8e a9 c6 3d
       0.017285055 -0.050833065 0.18421933 0.09700309
000100 99 52 de bd b6 62 06 3b 2f 95 5a be 53 e4 34 bd
       -0.10855598 0.0020505614 -0.21345972 -0.04416306
000110 b0 d3 a7 3d 68 63 3d 3c ef 23 bd 3d 79 e6 cd bc
       0.08194673 0.011559345 0.092353694 -0.025134312
000120 8d 10 2d be 39 21 9d bd 46 67 8e bd 8b 0b 48 bd
       -0.16900845 -0.07672352 -0.069532916 -0.048839133
000130 9d 3b c9 3d 3b 61 0d be b2 43 b9 3d ff ca d6 3d
       0.098258235 -0.13806622 0.09046115 0.10487937
000140 f6 7a 97 3d 8f 9b 3a be 59 e7 62 bd f1 49 19 be
       0.073965 -0.18223403 -0.05539641 -0.14969613
000150 5f dc af 3e e1 5f 23 3e bc 9f d3 bd 8f 31 fc bd
       0.34347817 0.15954544 -0.10333201 -0.1231414
000160 34 5f e3 bc 72 5d 05 3e b5 0b 0a 3e fb 0b bd bd
       -0.027755357 0.13023928 0.13481028 -0.09230801
000170 95 b5 6a be b0 08 79 3d e3 2b ac 3d 45 5c e3 bc
       -0.2292083 0.0607993 0.08406808 -0.027753958
000180 d1 b1 2d be 8e 57 c7 3b 2e 26 bc 3d f7 63 4f 3d
       -0.16962363 0.0060834354 0.0918697 0.050632443
000190 77 f2 f5 3d c8 74 3b be fc 10 da bd 73 97 86 3d
       0.12009137 -0.18306267 -0.10647771 0.065718554
0001a0 e4 a6 3e 3d d1 91 df bd cc 9c f3 3d 3c bc 01 3d
       0.046545878 -0.10916484 0.11895141 0.031673655
0001b0 fe 39 48 39 0d 99 3e bd 93 dd cb bd 48 cb 07 3e
       0.0001909509 -0.04653268 -0.09954371 0.1326114
0001c0 28 0d 3a 3e 31 df 7c be 37 e5 cd bd 38 c3 6c 3e
       0.18169081 -0.24694516 -0.10053485 0.23121345
0001d0 bd 9c 7f bd 8a 64 92 be e6 66 25 bd ce cc 61 3e
       -0.062405337 -0.2859233 -0.040381335 0.22050783
0001e0 c3 95 29 be e8 61 91 3e 9b ab 2d be 94 33 da bc
       -0.16561036 0.2839501 -0.16959994 -0.026635922
0001f0 e6 33 32 3e 0e 24 98 bd 0f 0b 25 bd 3f 43 eb 3d
       0.1740261 -0.07428752 -0.04029375 0.114874355
000200 35 57 db bd 21 ff 01 3b 91 91 2c 3c e2 52 9c 3b
       -0.10709993 0.0019835907 0.010532753 0.0047706226
000210 cb 05 a1 bd 9f 7d c3 bd 33 7b 85 3d c5 e5 a7 bd
       -0.07862433 -0.09545445 0.06517639 -0.08198122
000220 09 31 ee bc cf 42 10 3d 41 58 23 bc a1 e1 00 3e
       -0.029076116 0.035219964 -0.009969772 0.1258607
000230 53 b6 eb 3d a5 93 f2 bd 13 f8 11 3d 0a 5a 3f bc
       0.11509385 -0.11844567 0.035636973 -0.011679182
000240 9e ff 25 be 09 84 33 bd 7b 86 30 be 30 b6 3b be
       -0.16210791 -0.04382709 -0.172388 -0.18331218
000250 32 cc 08 3e 48 29 c8 3e 79 c6 08 3e 26 3e 66 be
       0.13359144 0.39093995 0.13356961 -0.22484645
000260 b0 4b 84 3d 90 79 39 3e 0c 92 59 3d c7 36 4a be
       0.06459749 0.18112779 0.053117797 -0.19747458
000270 76 df 1f bd 07 0e c2 3d 86 46 16 bb 19 92 54 3b
       -0.03903147 0.09475332 -0.002293022 0.0032435714
000280 a1 4a 77 be ea d3 5a 3e b0 c7 65 3e a3 59 4d be
       -0.24149562 0.21369901 0.22439456 -0.20053725
000290 8f 20 dc bd 79 ce 36 be cd 46 51 bc 6f 95 8f 3d
       -0.107483976 -0.178522 -0.012773228 0.07010924
0002a0 9b 2c b7 bd 05 b5 06 bd 4b db bc 3d 8f ad 56 3e
       -0.08944055 -0.032887477 0.09221514 0.20964645
0002b0 32 68 03 bc d3 0e fc bd b9 5a 10 3d b7 17 8a bd
       -0.008020448 -0.12307515 0.03524277 -0.067428045
0002c0 21 91 01 be 3e b5 58 bc 0a a5 b7 bd 9e e7 57 bd
       -0.12653019 -0.013226805 -0.089670256 -0.05271112
0002d0 0f 2f 88 ba 5d 3a 2a be 12 9c 4b 3b 79 75 1d bd
       -0.0010390001 -0.16623826 0.0031068367 -0.03844211
0002e0 a6 2e aa bd 52 c8 6c 3e d8 b9 58 3e 54 13 51 bd
       -0.08309679 0.23123291 0.21164644 -0.051043823
0002f0 d5 73 5a 3c 70 50 30 3b f3 4a 4c 3d c8 43 78 bd
       0.013333281 0.0026903413 0.049876165 -0.060611516
000300 0b 65 bf 3c ab 92 a5 bd 3d cf 88 bc d9 01 12 be
       0.02336361 -0.08084615 -0.016700381 -0.14258517
000310 3f ca 6e bd bc ff 11 be 49 5b 5a bd c9 60 55 3e
       -0.058298346 -0.14257711 -0.053309713 0.20837702
000320 45 9b 3f be 98 00 3c 3e 39 7f e1 be 19 de c6 3e
       -0.18711574 0.18359601 -0.44042376 0.38841322
000330 85 95 04 3b 0a 62 6b 3c 95 75 01 3e c0 e4 ee 3c
       0.0020230722 0.014366636 0.1264251 0.02916181
000340 d3 85 99 bd bb a4 e9 3b a2 9c fa bc 6a 02 3c 3d
       -0.07496228 0.007130233 -0.030592266 0.04590074
000350 06 cc 59 3d 78 50 17 be dd 60 83 bd 88 33 84 bd
       0.053173088 -0.1477679 -0.064149596 -0.06455141
000360 30 95 17 3d f6 31 62 3e 28 59 46 bc d7 8f 04 be
       0.03700751 0.22089371 -0.012106217 -0.12945496
000370 5e 6f 8a bd 9f 07 26 3e 1c 89 c2 3b 8c 1e 38 be
       -0.06759523 0.16213845 0.005936755 -0.17980403
000380 5e b8 65 bd 8b cb 62 3e 72 c9 79 3e c0 5c 86 be
       -0.05608403 0.22147958 0.24393252 -0.26242638
000390 62 bf 0b be 05 3c c7 3d 30 3a ea bd 0a 5b 01 be
       -0.13647225 0.09728245 -0.1143688 -0.12632385
0003a0 27 b6 a1 3d 89 af e0 bd 8b 9e 1e 3b 14 4c 1b 3e
       0.07896071 -0.10970981 0.0024203386 0.1516574
0003b0 a7 a5 a6 bd 09 d7 69 bc 39 ba 1e bd 53 de 74 3e
       -0.081370644 -0.01427246 -0.038751815 0.23912935
0003c0 bd d4 54 3e 0d 6b 1d 3e b9 a4 be be e8 b8 9c bd
       0.20784278 0.15372868 -0.37235048 -0.076524556
0003d0 58 55 b0 3d 7e 8b 20 3d 02 ef 17 3e 11 1b ce bc
       0.08610028 0.03919553 0.14837268 -0.02515939
0003e0 a9 cd 36 be 77 3c 72 3d 06 af 28 3e 46 93 51 3e
       -0.1785189 0.059139695 0.16473016 0.20466337
0003f0 1f cb 41 3d bc fe cd bd 93 eb 08 3d ca b3 73 bc
       0.047312852 -0.10058352 0.033427786 -0.014874408

prenet.bias f4 [80]
000000 9d d5 f4 bd 59 c3 d4 be 51 84 ea be 53 47 3d 3e
       -0.11954806 -0.41555288 -0.45804074 0.1848424
000010 b4 22 8f 3d a5 3a 2f 3e 50 e5 1d bf 4b a5 81 be
       0.06989041 0.17112215 -0.6167803 -0.2532142
000020 c7 94 91 bd af 94 7b be 14 2e c6 bd fd 0f ee bd
       -0.07108455 -0.24568437 -0.096767575 -0.11624143
000030 48 1a c8 3d d9 a6 92 3e d5 c5 0f 3e ad 0d 02 bf
       0.09770638 0.2864292 0.1404031 -0.5080212
000040 d5 b6 82 be 11 aa 13 3f c5 c2 38 3e da b8 3a 3e
       -0.25530115 0.57681376 0.18043049 0.18234578
000050 85 14 25 bd ab 94 4c 3e 7c 85 2d bc ab 7b 93 bd
       -0.040302772 0.19978587 -0.010590907 -0.07201322
000060 6f 84 9e 3e c7 8d f6 3e a2 e7 eb be 53 90 8e be
       0.30960414 0.48155043 -0.4607516 -0.27844486
000070 a2 8c ff be 42 37 fd 3c 34 33 12 3f 48 4c d7 3e
       -0.49911982 0.030910138 0.5710938 0.42050385
000080 55 34 3f 3e 2d b4 46 3f 1c 15 72 3d ac f5 2c be
       0.18672307 0.77618676 0.059102163 -0.16890591
000090 c3 d0 9f 3e f2 41 6d 3e c0 02 dc 3e ff e1 ca 3e
       0.3121396 0.23169687 0.42970848 0.39625546
0000a0 8d f7 c4 3e 9b a0 b2 be 36 d5 30 be 58 31 96 be
       0.38470116 -0.34888157 -0.17268834 -0.2933452
0000b0 89 c1 30 3f 48 d6 3d be b0 a9 8f 3d b4 19 a2 3d
       0.6904531 -0.18538773 0.07014787 0.07915059
0000c0 48 40 c8 3e ea e1 db 3d da 71 20 3f 9b 31 1f bc
       0.39111543 0.10736449 0.62673724 -0.009716417
0000d0 ad 48 71 be ac ec 65 3e 35 6a 38 3e 84 19 c7 be
       -0.2356288 0.22453564 0.18009265 -0.38886654
0000e0 9e 9b 42 bf 74 28 0a 3f bf fa c3 3e c0 d7 19 3e
       -0.76018703 0.53967977 0.38277242 0.15023708
0000f0 e3 5d df 3e e7 01 2c bd e8 c3 bc be 1f 8e 19 bf
       0.43626317 -0.041994 -0.36868215 -0.59982485
000100 2b d5 06 bf cc 67 ee 3e 08 32 c8 be 2d 79 62 3e
       -0.5266902 0.46563566 -0.3910067 0.22116537
000110 77 f1 1b 3c 3c 74 02 bf 30 ab de be 28 bb 15 3e
       0.009518019 -0.5095861 -0.4348998 0.14622176
000120 68 f4 ed 3d 9e 06 d2 3e d0 05 63 3d c7 21 d7 3e
       0.116188824 0.41020674 0.055425465 0.42017958
000130 7b d8 84 bf a5 f3 4f 3e 80 e8 0f be 54 e5 82 be
       -1.0378565 0.20307787 -0.14053535 -0.25565588

encoder_layer.enc_self_attn.W_Q.weight f4 [80, 80]
000000 82 40 b1 3d 47 59 4d 3d db 4e 55 bb ac a9 66 3d
       0.08654882 0.05013397 -0.0032548222 0.056314155
000010 35 84 28 bd 1a 32 0b 3e c5 96 71 3b 82 71 0b 3e
       -0.041141707 0.13593331 0.0036863547 0.13617519
000020 e7 a3 fd 3d 31 24 a4 3d 57 74 17 be fc 3e 2c be
       0.123847775 0.080147155 -0.14790474 -0.16820902
000030 f9 d9 20 bd b0 e6 16 bd 6c 48 ec 3d 58 79 37 3e
       -0.039270375 -0.036841094 0.11537251 0.17917383
000040 0d 26 02 3e 7f e5 97 bd 18 c8 14 3e f2 6b 15 be
       0.12709828 -0.0741682 0.14529455 -0.14591959
000050 0f 7a 6c be 71 32 06 bd 33 9e b2 bd 15 b1 c8 bd
       -0.23093437 -0.03276295 -0.0872158 -0.09799401
000060 c6 dc 98 3d bc 50 88 bd 61 f5 e0 bb cc 11 ae bd
       0.07463984 -0.06656024 -0.006865189 -0.08499488
000070 3b 39 ff bc 70 aa 49 bd e4 d6 80 3a e9 34 06 bc
       -0.03115522 -0.049234807 0.0009829667 -0.008191326
000080 a8 a3 57 bc 33 c6 ba bd 7d ec ac 3c 7c cd dd bc
       -0.013161577 -0.09119835 0.02110886 -0.027075522
000090 8b c4 8e be f5 2d e8 bd 03 28 5f be c3 91 be bc
       -0.27884325 -0.113368906 -0.21792607 -0.023262864
0000a0 1c fb e3 bd 64 71 6c bd 6d 67 f4 3d 31 f8 66 3d
       -0.1113188 -0.057725325 0.119337894 0.056389038
0000b0 c9 0f da bd 7b a9 f8 3d 0b 44 e3 bc 2c 3b c6 3d
       -0.10647542 0.12141701 -0.027742406 0.09679255
0000c0 7b 98 24 3d 73 ed 0c 39 60 12 89 3d 6d 48 db 3d
       0.04018448 0.00013439897 0.06692958 0.107071735
0000d0 e2 00 85 3c 8f e2 75 be b8 2a 32 3d ee a6 94 3d
       0.016235773 -0.24012206 0.04349777 0.07258402
0000e0 a4 55 23 3c 33 46 02 3e c4 bd 00 3d 08 cc f7 bb
       0.009969149 0.12722091 0.031430975 -0.007562164
0000f0 f2 f5 50 be 97 0e 51 3d 43 7e aa bd 04 16 99 bc
       -0.2040632 0.051039305 -0.08324864 -0.018687256
000100 b9 ad 6a 3d 7d 10 36 bd 25 65 05 3e 23 83 e1 3d
       0.05729458 -0.04444932 0.13026865 0.110113405
000110 48 74 a5 3d 6b f9 4a bc a9 02 6d bd c1 fa 1e be
       0.080788195 -0.012388567 -0.057863865 -0.15525343
000120 1d 44 b7 3b 16 7c 39 be 4d f7 3a 3d 4f 2f 29 be
       0.0055928365 -0.18113741 0.045646 -0.16521953
000130 99 4a 91 bd 83 27 a4 3d 90 c9 d0 bd 69 33 8e bd
       -0.070943065 0.08015349 -0.10194695 -0.069433995
000140 36 37 5d 3c 54 e0 b4 bc 30 95 8f 38 3e a9 f4 bb
       0.013501933 -0.022079624 6.84656e-05 -0.0074664643
000150 5f d3 79 bd 48 d6 a3 bc a6 bf b2 3c 5c c6 ba 3a
       -0.060992595 -0.019999638 0.0218199 0.001424979
000160 3c 8c 55 bd 93 10 b9 3d 64 e0 f3 3c b7 db b9 3c
       -0.05213569 0.090363644 0.029770084 0.022687776
000170 10 f2 b5 bc 4d 8b 1b 3c a1 14 8a bd 38 24 d0 ba
       -0.022210151 0.009493661 -0.06742216 -0.0015879935
000180 92 11 94 bd c6 5e 74 3b 72 a5 e7 bc 68 2a 3b bd
       -0.07229914 0.0037287935 -0.028277133 -0.04569474
000190 87 61 74 bc 96 d2 a6 bd 3a b2 8f 3c f1 ba 23 bd
       -0.01491583 -0.08145635 0.01754104 -0.039973203
0001a0 e9 bf 2a 3d 83 94 f1 3c 0e da 42 bd d1 22 85 bc
       0.041686926 0.029489761 -0.047571234 -0.016251953
0001b0 98 03 e7 ba 48 80 85 3d 86 aa 60 ba fc 89 d9 3c
       -0.0017624972 0.06518608 -0.0008570332 0.026555054
0001c0 f3 7a 84 bd b1 73 dc bd a1 33 16 bd 73 3a 05 bc
       -0.06468763 -0.10764254 -0.03667033 -0.008131611
0001d0 45 d8 58 3d f3 e8 14 bc 5f 86 c7 3c 56 58 84 bc
       0.052940626 -0.009088743 0.024356065 -0.016155403
0001e0 19 be d1 bc 4d 96 0e 3d 11 3d f6 3c 0a 2c 9e bd
       -0.025603341 0.034811307 0.030058416 -0.077232435
0001f0 5a 3c 06 bd 14 a3 05 bc d2 57 30 bd 1f 2a 38 bd
       -0.0327724 -0.008156557 -0.043052502 -0.044962045
000200 c4 dc 82 bc d3 1a 2e bd 24 f8 29 bc 8c 92 5e bc
       -0.01597441 -0.04250605 -0.010374103 -0.013584744
000210 e0 10 e3 bc cf 0c 32 bd e3 b6 72 bd 28 ce ff 3d
       -0.027718008 -0.043469246 -0.059256446 0.12490493
000220 40 83 57 bd 39 2f 6a 3d f2 42 1a 3c 35 90 c2 bc
       -0.052615404 0.05717394 0.009415375 -0.023750404
000230 f4 58 32 bb 18 c5 0a bb ba 37 db 3c a5 cc db bc
       -0.0027213665 -0.0021174606 0.026759971 -0.02683098
000240 dd 96 38 3d a3 34 98 bd 30 9f 01 bd 44 58 1d bd
       0.04506575 -0.07431915 -0.031645954 -0.038414255
000250 ea 3b 58 3d b5 39 82 3d ad a2 86 3d 21 a7 8e 3d
       0.052791514 0.06358663 0.06573997 0.06965471
000260 59 ab 55 3d 29 cb 8a 39 95 28 ec 3c 28 30 bf bd
       0.052165363 0.00026472777 0.028827945 -0.09335357
000270 c4 61 90 3d ee 27 c5 bc 45 7e 26 bd ae 4f 22 3d
       0.07049897 -0.024066892 -0.040647764 0.03962677
000280 53 db 67 3c a1 8a 4b bc ab 64 eb 3c 69 01 80 bd
       0.014151412 -0.012423188 0.028734526 -0.06250269
000290 da f8 4c bc 8d d6 f1 3c 41 c7 b2 3c fb 70 9e bb
       -0.012510503 0.029521251 0.021823527 -0.0048352457
0002a0 c2 a5 15 3d fc 2f 70 bc a5 65 97 bc 7a 1b 5d 3d
       0.036535032 -0.014659878 -0.018481085 0.05398128
0002b0 32 9e b5 bb 77 88 b3 3c 92 9e 64 3c 9c 2c 81 bc
       -0.00554254 0.021915657 0.013953822 -0.015768342
0002c0 dc 2a fe bc b1 a1 86 3c 2f 02 ae bb 98 f0 71 bc
       -0.031026296 0.016434522 -0.005310319 -0.014766835
0002d0 6b 5b 0b bc 90 8c 55 bc da 83 96 3c 82 5e 3a ba
       -0.008505682 -0.013034001 0.018373419 -0.00071094197
0002e0 aa f7 ae bc 26 73 38 bd f5 1e e2 3c 92 97 7e bc
       -0.02135833 -0.04503169 0.027602652 -0.015539067
0002f0 2c 53 cb bb 46 c7 1d bd 29 c5 ad 3c 9d f7 e8 bc
       -0.006204983 -0.03852012 0.021212177 -0.028438384
000300 7e 0f 72 bc 00 67 4f 3d 1c 99 21 3b be 9a 3f bb
       -0.014774201 0.050635338 0.002465791 -0.002923652
000310 31 c1 5e 3d 62 6b ee 3c 14 a5 24 3d 73 e1 97 3b
       0.05438346 0.029103938 0.040196493 0.00463503
000320 97 d2 ee bb 7f 00 e7 ba 27 55 0b bc e0 fe 50 3c
       -0.007288288 -0.0017624049 -0.008504189 0.012756079
000330 1f e4 c3 bb e5 95 ab ba 7e 83 e6 3c c4 b2 60 3d
       -0.005978122 -0.0013090937 0.028138872 0.054857984
000340 34 f6 24 3d 1c ea fb bb e2 cb ca bb 3d 92 0c 3c
       0.04027386 -0.00768782 -0.0061888555 0.008579788
000350 60 89 26 3d 79 46 65 3d e0 54 cc 3d e4 25 9e 3c
       0.040658355 0.05597541 0.09977126 0.019305177
000360 6d 76 ad 3b f3 39 bb 3c 23 a3 8f bd 2d cd 9a 3d
       0.0052936585 0.02285478 -0.07013538 0.075586654
000370 ac 05 2b bd 24 ea 1d 3d 5b 23 21 bd ae 47 89 bc
       -0.041753456 0.038553372 -0.03934036 -0.016757812
000380 88 0d cf bc 11 e9 cc 3c 4b 5d 24 bd 5d 3e 11 bd
       -0.025275007 0.025013478 -0.040128034 -0.035459865
000390 c9 40 cf bc fa ae 30 bc e5 f5 9e 3c 1a a4 b0 bd
       -0.025299447 -0.010783905 0.019404361 -0.0862505
0003a0 c5 37 1b 3c b1 71 83 39 25 63 2f 3d 58 56 06 bd
       0.009473746 0.00025070974 0.04281916 -0.032797188
0003b0 25 06 39 3d 2f 45 04 bd 0d b4 68 bb 45 e6 a9 bc
       0.045171876 -0.03229254 -0.003550771 -0.020739684
0003c0 51 62 a6 3c 25 59 10 bd b8 73 98 3d 2a 6c b0 bc
       0.020310553 -0.035241265 0.074439466 -0.021535952
0003d0 b5 76 7c bc 8e af 27 3d a1 c9 14 3d 64 78 e8 3c
       -0.015409161 0.040938906 0.0363251 0.02837772
0003e0 52 44 1d 3d f5 c2 94 bb d9 fe 4a 3d 0e c0 62 bd
       0.038395233 -0.0045398423 0.049559448 -0.05535894
0003f0 14 e8 bd 3d b1 25 37 bd a8 a0 b2 3c 14 4c eb ba
       0.09272781 -0.04471368 0.021805122 -0.001795175

encoder_layer.enc_self_attn.W_K.weight f4 [80, 80]
000000 b7 e2 5e 3d cb 23 97 3d e4 64 e8 3c 75 a4 7c bc
       0.05441543 0.07379874 0.02836842 -0.015420069
000010 83 b3 28 3e 95 2f 7e 3d f7 c2 91 be b6 75 78 bc
       0.16474728 0.062057097 -0.2846906 -0.015164783
000020 7f ae c7 3b 9f 84 0f bd 3c b2 63 3d 80 ce 10 bb
       0.0060937996 -0.035038587 0.0555899 -0.002209574
000030 29 fa 48 3e 7d b5 cc 3d b3 fa ae bd 56 56 d9 bc
       0.19626679 0.09995554 -0.08543911 -0.026530426
000040 37 4a f0 bd 29 9c b4 3d 09 25 f3 bd 87 d4 2f 3d
       -0.11732905 0.08818848 -0.11872298 0.04292729
000050 22 aa 05 3e bc 48 a2 bc b4 6d 98 3e 03 c6 ef 3d
       0.13053182 -0.019810073 0.29771197 0.117076896
000060 4a 6b ea bc 50 6b 3b bd 70 7d 84 bd f9 00 ed 3d
       -0.028615613 -0.045756638 -0.06469238 0.11572451
000070 b4 17 ab 3d 59 8f 59 bd 8a 6d 84 3d 5c af 28 38
       0.083541304 -0.053115223 0.064662054 4.0217637e-05
000080 7b aa 1a 3e 15 24 b5 3c 12 06 da bd 1c 26 d1 3d
       0.15104096 0.022111932 -0.10645689 0.10212347
000090 6a fd 12 3e 1c d3 00 3e a7 9e 08 3e 10 cf a2 3d
       0.14354482 0.12580532 0.13341771 0.0794965
0000a0 72 69 b7 bb 86 a7 fd 3c 7e 89 36 bd be 1f 05 be
       -0.005597287 0.03096367 -0.044564717 -0.1300039
0000b0 e5 fd 5b 3d 3f cd 03 3d 73 08 c1 bc d9 01 9e bc
       0.05370893 0.03217816 -0.0235636 -0.01928799
0000c0 b0 af 3d 3d e5 39 68 bd cc 03 3f bd f4 9d 64 be
       0.046310127 -0.056695838 -0.04663448 -0.2232588
0000d0 2b 81 4a bd 83 01 41 3e 6d 63 80 bd a2 45 7f 3d
       -0.04943959 0.18848233 -0.06268964 0.062322266
0000e0 bb ab e6 bd e6 5b 31 be 44 f1 5b 3d c6 1e b6 bd
       -0.11263224 -0.17320213 0.053696886 -0.08892588
0000f0 6f 1c 9b 3d 1d 81 97 3d 4b 9d ff 3d bd b3 f0 3d
       0.07573783 0.07397673 0.12481173 0.11753032
000100 b4 b5 8f bc 87 37 ef bd 32 41 01 bd 23 d5 7d 3c
       -0.017542697 -0.11680513 -0.031556316 0.01549271
000110 51 df 88 bd 3c 65 32 3c d5 1d 08 3d 75 a5 04 3e
       -0.06683219 0.010888394 0.033231575 0.12953742
000120 1a bf 61 bc 68 22 e4 3d 3c a9 9e bd 05 74 10 3d
       -0.013778472 0.11139375 -0.07747123 0.035266895
000130 93 85 45 3d 23 12 92 bd 9c 28 06 bd b2 f1 00 3d
       0.04822309 -0.071323656 -0.032753572 0.0314805
000140 d1 0f 31 bd ec d0 dc 3a 38 a5 51 bc 5f f7 6d bd
       -0.043227974 0.0016846932 -0.012795739 -0.05809724
000150 94 34 d5 3d 43 40 61 3d 76 43 2a bd 7f dd 84 3c
       0.10410419 0.054992925 -0.041568242 0.016218899
000160 76 48 1c bd fc cc a1 bd 2c 42 f7 3c 3d 81 4e 3d
       -0.03815504 -0.07900426 0.03018292 0.05041622
000170 d3 56 40 3d 78 a6 ac 3c 23 5a 30 3c e9 aa 5a bc
       0.046957802 0.021075472 0.010763678 -0.013346412
000180 5d ec 7f bc 29 f2 a6 3c a0 ef 1f 3d e4 75 0b 3d
       -0.015620318 0.020379143 0.039046884 0.034047976
000190 ed 8e d3 3d 22 78 30 3c 8a da 6b 3d f5 db 07 3d
       0.10329995 0.010770829 0.057581462 0.03316875
0001a0 89 46 a8 3d 2e e2 b7 3d 71 44 bc bc 01 9c 93 bd
       0.082165785 0.08978687 -0.022981854 -0.0720749
0001b0 07 0e 10 3d 41 9e 1a 3c 67 eb b6 3d 15 ec 0f 3e
       0.035169628 0.009437145 0.08931618 0.14054902
0001c0 15 1a 35 3d b8 b7 02 3d ad e0 b2 bc 6c f3 ad 3c
       0.044214327 0.03191349 -0.02183565 0.021234237
0001d0 f0 d1 9c 3c 58 20 84 bd e5 95 95 3d b9 07 a8 3d
       0.019143075 -0.064514816 0.07303981 0.08204598
0001e0 d6 1d 4e 3d 00 b0 16 bd a0 61 03 be 92 f9 85 bd
       0.050321423 -0.03678894 -0.1283021 -0.065417424
0001f0 eb 74 87 3d 7d f0 09 bd df d8 93 3d c6 f8 5d 3d
       0.06614097 -0.033676613 0.07219099 0.054192327
000200 a2 23 42 bc cc 94 ed 3d 08 62 38 bd 99 89 9e bd
       -0.011849316 0.116006464 -0.045015365 -0.077410884
000210 64 f7 95 3c 0d c8 31 3d 80 36 19 3d 84 aa 6a bc
       0.018306442 0.043403674 0.03740549 -0.014322881
000220 3f c4 a5 bc 16 31 1e be 8a 0c e5 3c 1c 56 78 bd
       -0.020235179 -0.15448412 0.02796008 -0.060628995
000230 36 84 88 3b c4 32 bf bc 3a d3 9a 3c 45 9b 97 3d
       0.0041661514 -0.023339637 0.018899549 0.07402662
000240 d3 7b ef bd c4 1b 5d 3d be 42 2e bd 0c 68 e7 bb
       -0.116935395 0.053981557 -0.04254412 -0.007061964
000250 4a ce 22 bd 79 79 95 3c 0b e0 98 bd 58 11 ce 3c
       -0.039747514 0.0182464 -0.07464608 0.025154755
000260 66 3d 50 bd d4 1a 81 3d b2 02 53 bc 81 db b5 3d
       -0.050839804 0.06303945 -0.012879061 0.08879758
000270 e4 3c 9e bd bc 34 62 bd 81 b3 ac bd 29 be 86 bc
       -0.07726458 -0.055226073 -0.08432675 -0.016448097
000280 7d e5 de bc 99 14 3f bd 90 57 a2 bd f2 2e a0 3b
       -0.027209038 -0.046650503 -0.079268575 0.004888409
000290 da 24 48 3d db 8b 8f bb bd 9f 11 bd 82 52 1d 3d
       0.04886327 -0.0043806857 -0.03555273 0.038408764
0002a0 47 a4 74 bd a9 c6 92 bd 62 1e b4 3c 82 7a 79 39
       -0.05972698 -0.07166798 0.021987144 0.00023792128
0002b0 9b 9f 65 bd 01 82 b6 bc bc 25 10 bd 82 66 0d 3d
       -0.056060415 -0.022278788 -0.035192236 0.034521587
0002c0 95 76 8e bd 74 2d a7 bc 45 78 4d 3c c1 f4 fe bb
       -0.069562115 -0.020407416 0.0125408815 -0.007780642
0002d0 91 e9 bd bc 76 7b e4 3d 54 e2 4e 3c 4f 19 52 3d
       -0.023182662 0.11156361 0.012627203 0.051293667
0002e0 f0 f4 b9 3c 02 0f bd bc 4b 51 5c bd 2e dc 3f bd
       0.022699803 -0.023078445 -0.053788465 -0.04684084
0002f0 c5 6e d0 bc de fe d3 bc ef 97 c4 3d 65 41 10 3d
       -0.025443444 -0.025878366 0.095992915 0.035218615
000300 41 17 1b 3d d3 0f 21 3c 37 3e 13 bd f9 ff ae 3c
       0.037863974 0.009830433 -0.035948005 0.021362292
000310 87 5f 87 3d d9 08 cc 3c a9 ee d6 3c f3 14 c0 3c
       0.06610017 0.024906563 0.026236849 0.02344749
000320 a9 ba ba ba d6 38 35 3d b0 b4 45 bd 6b f5 00 bc
       -0.0014246303 0.044243656 -0.04826802 -0.007871012
000330 81 62 8a 3d 19 a4 30 bd 19 e0 68 3d fb bb bb 3c
       0.067570694 -0.043125246 0.05685434 0.022916785
000340 1b 7b 22 bd 46 b4 a7 3b 6d f5 3f bd b3 81 fd ba
       -0.039668184 0.005117926 -0.046864916 -0.0019341022
000350 01 e2 d4 bc 19 1e 26 bd b1 96 06 bd 42 4e 8d bd
       -0.025986673 -0.040556047 -0.032858554 -0.06899692
000360 e8 70 6f bd f6 48 91 bd fc 7c 5f bc 45 04 a5 bd
       -0.058457285 -0.07093994 -0.013640638 -0.08057455
000370 df ad c1 3b 67 7d 3e 3d b9 2b bb 3c 3d b3 27 bd
       0.0059106196 0.04650631 0.022847997 -0.04094242
000380 22 45 26 bd f8 e4 5d 3a 2c 19 9d bd 74 a6 1d bd
       -0.040593274 0.00084646 -0.07670817 -0.03848882
000390 59 60 dc bd 8a 17 30 bd ae a4 1d bd 72 15 05 3a
       -0.10760564 -0.0429912 -0.03848713 0.0005076743
0003a0 6c 19 89 bd ce 97 d7 3b 28 ad 64 bc 5d 02 3b 3d
       -0.06694302 0.006579376 -0.013957299 0.04565655
0003b0 f0 3d 47 3d dd e5 7a bd d3 70 2f 3d 63 7d 6f 3c
       0.048643053 -0.06125437 0.042832207 0.014617297
0003c0 a9 a7 fb bb 8b 06 96 bc b0 04 94 3c 99 44 73 3c
       -0.0076798988 -0.018313667 0.018068641 0.014847898
0003d0 d7 0d 4a 3d ce d8 0a 3d 5e 4e a0 bc 40 f0 57 bd
       0.049329605 0.033898167 -0.019568618 -0.052719355
0003e0 b8 f1 3b bd 2a 1c c0 3c 5f e5 e8 3c 04 dd 1d 3d
       -0.045884818 0.02345093 0.028429685 0.038540855
0003f0 68 f5 5b bd 35 44 32 bd eb 22 d5 3c 94 b3 37 3d
       -0.053700835 -0.04352208 0.026017627 0.044848993

encoder_layer.enc_self_attn.W_V.weight f4 [80, 80]
000000 60 a3 ae 3d 54 f3 59 3c ba 01 9e bd 99 b9 52 3d
       0.08527255 0.013302643 -0.07715173 0.05144653
000010 50 3f 84 bc 9e 7e db 3d 15 6f f0 3d b8 5d 73 bd
       -0.016143471 0.1071751 0.11739937 -0.05941555
000020 cb 21 8a 3c 5f 8c 91 3d 07 17 53 3b 39 5d 19 3d
       0.016861817 0.07106852 0.003220977 0.03744242
000030 b7 6e 5c bc 2c bc ac bc 82 85 b7 bb c6 59 3b bd
       -0.013454131 -0.021085821 -0.005600632 -0.04573991
000040 71 55 a6 3c c6 89 86 3d 42 77 0c 3d 5f c6 a6 bc
       0.020304414 0.06569247 0.03429342 -0.020358263
000050 25 3f f7 3d d6 e2 85 3d 78 25 04 3d 30 9f 6f 3d
       0.12072591 0.06537406 0.032262295 0.058501422
000060 a2 ce 8b 3d ee 43 04 3c 56 ae f1 bb 7a 79 34 3c
       0.068265215 0.008072836 -0.007375519 0.01101529
000070 8d 4a c4 3c d1 a0 44 3d cc dc 3c 3d c9 cb 87 bd
       0.02396133 0.04800493 0.046109006 -0.06630666
000080 88 60 30 bd 86 bc ad 3d 2e 21 1a 3d 7b 79 ad 3d
       -0.04306081 0.084832236 0.0376293 0.08470436
000090 c4 c9 63 bc 53 a1 49 3d 57 01 8e 3b d3 5e c5 bc
       -0.013903085 0.049226116 0.004333656 -0.024093067
0000a0 66 92 4d bd 5e 50 06 3e 0f 00 d8 bb 1e 96 12 3c
       -0.050188445 0.13116595 -0.006591804 0.008946924
0000b0 8d b0 a2 3d 75 62 c4 3d d8 f2 26 3e cb cf c4 3c
       0.07943831 0.09589092 0.16303575 0.024024865
0000c0 70 31 15 bb e2 e6 e9 3c 8e 3f 0b 3d 54 a1 73 3c
       -0.0022765063 0.028552476 0.033996157 0.014870007
0000d0 ac b5 03 bc c4 ef e2 3d 91 52 17 bd 54 26 0e 3d
       -0.008038919 0.11080888 -0.036943976 0.03470452
0000e0 7b eb b0 ba f6 c9 d7 3c a6 cf 3d 3d fe 94 13 3e
       -0.0013497913 0.02634142 0.046340607 0.14412305
0000f0 a2 42 74 bc 0c eb 2e be 6b 91 1d 3d 18 42 15 3d
       -0.014908465 -0.17081851 0.03846876 0.036439985
000100 98 5d df 3d e9 b6 77 3d ad bc aa 3c 9c 27 99 bd
       0.109065235 0.06047717 0.02084192 -0.07478258
000110 30 11 86 3c e6 1b 9c 3d e9 75 7d 3c 27 7d 4d bd
       0.016365618 0.07622509 0.0154700065 -0.050168183
000120 e3 8b 3c 3c dd 03 af 3d 78 a8 14 3e 8c 34 74 3d
       0.011507961 0.08545659 0.1451739 0.059620425
000130 8b ea 19 3b 45 e9 90 3c 1e 6a 88 3d a4 52 66 3d
       0.0023485746 0.017689357 0.06660865 0.056231156
000140 69 95 8c bc b4 9c 98 3c bc c8 7f 3d 54 12 17 bd
       -0.017161088 0.01862941 0.062447295 -0.036882713
000150 ee 1d 95 bd b0 a0 e9 bd 50 10 44 bd 2d 7d 2a bb
       -0.07281099 -0.11407602 -0.04786712 -0.0026014552
000160 c2 a1 4b bd 42 17 aa bd 07 f7 f0 3c b9 02 71 3d
       -0.04971481 -0.08305217 0.029414667 0.058840487
000170 b8 52 9b 3d d7 2c f3 3d 33 cd e0 bd 43 15 68 3c
       0.07584137 0.11873787 -0.10976639 0.014165225
000180 39 19 1f be 4a 0a 1f 3d ca e9 d3 3b b3 e4 e2 3d
       -0.15536965 0.03882817 0.006467079 0.11078777
000190 f1 e2 0b 3e a4 9a ff bc 49 28 51 3d 67 77 4c bd
       0.1366079 -0.031201668 0.05106381 -0.04991856
0001a0 f6 f8 7d 3d 92 e8 22 bb 45 77 e8 3d 84 7d bc bb
       0.062005006 -0.002485786 0.11350874 -0.0057522673
0001b0 5d 40 b8 3c a5 95 6e bd d7 ae cd bc fb cf fd 3c
       0.022491628 -0.05824818 -0.025107784 0.030982962
0001c0 fb d2 0f 3c 93 e8 ad 3d 25 cd df 3c 36 b3 86 bc
       0.008778329 0.08491626 0.0273195 -0.016442876
0001d0 f9 b2 d8 3d 2a 79 1e be 06 77 bd bc 66 bc 57 bb
       0.10581011 -0.15475908 -0.023128044 -0.003291869
0001e0 cc ff d3 bd 83 83 f1 3d db 3d d5 bc 08 89 49 bc
       -0.10351524 0.11792662 -0.026030472 -0.012300737
0001f0 0e 28 0c bd 80 9e b7 bc 08 43 c2 bc 63 f0 bd 3c
       -0.034217887 -0.022414446 -0.023713604 0.023185914
000200 7c 06 15 3c 1b db 5c 3d 5a b5 a6 bd 86 c0 70 3c
       0.009095784 0.053919893 -0.08140059 0.014694339
000210 98 38 f2 3c 84 f7 3b bd 19 bf 91 bd 2f 69 8a bd
       0.029568002 -0.045890346 -0.07116527 -0.067583434
000220 1f bf 15 bd a2 70 79 3d 98 a2 bc bd 45 96 08 3d
       -0.03655922 0.06089843 -0.092107 0.033346433
000230 47 19 9a bc b9 6a 87 3d b4 dd 3f 3c e4 22 84 3d
       -0.018810881 0.066121526 0.011710573 0.06451967
000240 ca a4 7c bb d7 5d 24 bd 96 55 52 bc 70 5a ba bd
       -0.003855037 -0.040128555 -0.012837788 -0.09099281
000250 12 90 23 bc 51 ce b9 bc 45 44 15 bd 4b 5a cd 3d
       -0.0099830795 -0.022681387 -0.03644206 0.10026988
000260 1c ab 04 3c 29 b1 ef 3d e0 65 b5 3d b6 e1 8b 3b
       0.008097436 0.117037125 0.08857322 0.00426885
000270 d1 90 8d bd d3 a3 b7 bd 52 c8 b4 3d a9 74 09 3d
       -0.06912387 -0.08966794 0.088272706 0.03355852
000280 25 f2 b2 bb 0b 48 9f bd be e9 08 bc af 95 07 be
       -0.005460995 -0.07777413 -0.00835651 -0.13240694
000290 aa 94 19 bd 0e 59 83 3c 6c 44 12 bc a0 79 48 bd
       -0.037495293 0.016033676 -0.008927446 -0.048944116
0002a0 13 c6 02 3e 82 54 4b bd cb ff 9a 3c 84 f5 89 3b
       0.12770872 -0.04964114 0.0189208 0.004210176
0002b0 e9 97 5e bd 21 80 ae 3c 86 6b d5 3c b2 02 a7 3b
       -0.05434409 0.021301331 0.026052248 0.005096757
0002c0 a4 22 a0 bc 89 8a ef 3d 80 08 06 bd fd f6 b3 bc
       -0.019547768 0.11696345 -0.03272295 -0.02196836
0002d0 ef c3 66 3d c9 2b 02 3e e6 d7 78 3d c3 c1 03 bd
       0.0563392 0.12712015 0.06075277 -0.032167207
0002e0 8f e0 d3 3c 93 9d 19 3d 79 f7 a5 3d 2c 25 00 3b
       0.025863914 0.03750379 0.08103842 0.0019553406
0002f0 21 7e 3e bc 2b a0 9a bd b7 ee d2 bc f8 e8 bf 3d
       -0.011626751 -0.07550081 -0.025748594 0.09370607
000300 13 e8 40 bd df 3c 4b 3d a1 70 0e 3d b0 be 67 3d
       -0.047096323 0.049618598 0.03477538 0.05657834
000310 4a 10 f3 bc d0 54 77 bd 44 f3 70 bc 98 f5 92 bd
       -0.029670853 -0.060383618 -0.014706437 -0.071757495
000320 92 95 c6 bd 8e b9 5c 3d 7a f0 96 3d e2 d2 85 bd
       -0.09696497 0.053887896 0.07370086 -0.06534363
000330 65 f8 20 3b d8 98 59 3d 27 72 6b 3d c8 e6 ad bd
       0.0024562117 0.05312428 0.05748191 -0.08491284
000340 10 a3 a4 bc 4c 8f 4c bd da 75 50 bd 23 5a 0b bd
       -0.020097286 -0.049941346 -0.050893642 -0.034021508
000350 3f b9 e2 3c cb 19 10 3e e1 e3 de bc 14 5b 11 3d
       0.027676223 0.14072339 -0.02720827 0.03548725
000360 aa 36 2b bb 63 80 60 3d 74 03 34 bd 71 51 bd bc
       -0.0026125112 0.05480994 -0.043948606 -0.023110123
000370 46 5c 6e bc ed 6b c2 3d 4a 1c 4b 3c 93 d0 cb ba
       -0.014548367 0.094932415 0.012396881 -0.0015549831
000380 1f 14 6c 3d ea f7 9d bd 82 22 af 3c 49 c7 bb bd
       0.057636376 -0.077133015 0.02137876 -0.0916887
000390 99 85 06 3c 68 7f 7d bc ba c8 41 bc e5 bf 84 bc
       0.008210563 -0.015472271 -0.011827642 -0.016204784
0003a0 2c 27 24 3d a3 c5 08 bb 65 9d 27 bd 53 0a a9 bd
       0.04007642 -0.0020869754 -0.040921587 -0.08253922
0003b0 08 3e 79 bc 7a e4 19 bd 31 f3 0f bc 2d 8c be 3d
       -0.015212543 -0.037571408 -0.008786009 0.0930408
0003c0 68 6f 02 3d 78 aa 30 bc 8e e2 03 bd 98 4f 9f bd
       0.031844527 -0.01078283 -0.03219848 -0.07778853
0003d0 11 27 89 bd cf 51 c5 bc cf 01 a6 bd ad ca f5 3c
       -0.066969045 -0.024086861 -0.08105814 0.03000387
0003e0 90 ed 4f 3d 7a d6 ed 3c 4b dc 86 bc 6a 30 23 bd
       0.050763667 0.029032934 -0.016462466 -0.039841093
0003f0 41 94 a4 3a f8 57 7b 3d 49 bc 14 bd 9e 53 0b bd
       0.001255639 0.06136319 -0.036312375 -0.03401529

encoder_layer.enc_self_attn.fc.weight f4 [80, 80]
000000 2d 65 85 bd 18 bb 2d 3d 2a 6a eb bb 1f d0 bc 3c
       -0.065134384 0.042414755 -0.0071842866 0.023048459
000010 b3 71 6b 3c 48 c0 7d bc fc 99 fa 3c 7d 60 a9 bd
       0.01437037 -0.015487738 0.030591004 -0.08270357
000020 f9 23 ea bc c0 92 e1 bc 67 d7 1c 3d 1b e9 1a bd
       -0.028581606 -0.027535796 0.03829136 -0.037819963
000030 bf b6 0a be 46 69 1f bc 8c b9 cb bc 47 5e 95 3d
       -0.13546275 -0.009729689 -0.02486875 0.072933726
000040 c0 f3 59 bc 0b 80 64 3d 55 91 40 3d 84 f6 b7 3d
       -0.013302743 0.055786174 0.0470136 0.08982566
000050 bf 6a 7d bc 80 9f 33 bc cc 5c 1a 3d 63 11 42 bd
       -0.015467345 -0.010963321 0.037686154 -0.047379863
000060 b6 19 d1 3a 75 30 2f bd 7b e8 2d 3c aa f5 d9 3c
       0.0015953097 -0.04277082 0.01061451 0.0266064
000070 d5 31 67 3c b1 19 c0 bc 16 6a 2a bd 21 7f e3 bc
       0.014111002 -0.02344975 -0.041605078 -0.02777058
000080 2f 15 6d 3d 9d f8 97 3c f6 40 57 3c 1e dd d8 bc
       0.05788153 0.018551165 0.0131380465 -0.026472624
000090 5d 88 80 bc c6 f1 67 bd 59 ae a4 bc 71 b0 3e 3c
       -0.015690023 -0.056627057 -0.020102667 0.011638747
0000a0 89 14 95 bc d4 e6 ea bb 42 a9 53 3c 91 83 d3 3c
       -0.018198268 -0.00716863 0.012918772 0.025819572
0000b0 2a 06 3c bd e6 6f ae 3b 1f f0 f9 3b f8 36 5f bd
       -0.045904316 0.005323398 0.0076275016 -0.05449578
0000c0 0c 9e 1b bc be b3 77 bd f3 05 4b bb 93 37 0b 3d
       -0.0094981305 -0.06047415 -0.0030978888 0.033988547
0000d0 bc 0e ec 3c 71 cc 85 bd 8d 00 4d bd fe b7 a1 3d
       0.02881562 -0.06533135 -0.050049353 0.07896422
0000e0 3e 58 da bc 71 74 60 bd 4e 6b d8 3d 5b 26 a5 3d
       -0.026653405 -0.054798547 0.10567342 0.08063956
0000f0 dc 14 44 3c 7c d9 bb 3c c3 dc 38 bb 90 4c 91 bd
       0.011967864 0.022930853 -0.0028207756 -0.07094681
000100 65 6d e7 bc a8 63 57 bd 6a 95 c2 3c 36 63 f0 3c
       -0.028250406 -0.052585274 0.023752887 0.029344182
000110 5e 18 6c bd 83 9c db 3b 25 cb 0b 3c 7a 46 17 bc
       -0.057640426 0.0067020073 0.00853232 -0.0092331115
000120 d2 82 13 3c 54 79 db 3c d0 aa d8 ba 27 78 92 3c
       0.009003358 0.026791252 -0.0016530398 0.017879559
000130 e8 f1 65 bd e9 ce 60 3b 01 5a 72 bd 5c 97 10 3c
       -0.056138903 0.0034303016 -0.059167866 0.008825149
000140 a9 d9 3e bd a6 3c 11 3c be 40 8a 3d 6e 67 18 bd
       -0.046594296 0.008864557 0.0675063 -0.037208013
000150 11 d7 15 bd 67 e7 2a 3d 67 93 d5 3c 05 46 3e bd
       -0.036582056 0.04172459 0.026071263 -0.046453495
000160 99 b0 1b bd a0 09 04 bd 83 13 31 3c 07 4a bf ba
       -0.038010214 -0.03223574 0.010807875 -0.0014594205
000170 8c 40 e7 bc a8 22 95 3b 66 d9 2e 3d fb 35 46 3a
       -0.02822902 0.0045512505 0.042687796 0.00075611443
000180 fe 99 9b 3a 21 cb c7 bc 72 95 fc bc f2 a7 eb 3c
       0.0011871455 -0.024388852 -0.03083298 0.028766606
000190 81 d8 8a 3c a5 fc b8 bd 3d 00 0e bd cf 5b 39 bd
       0.01694894 -0.09032563 -0.034668196 -0.04525357
0001a0 b3 cc 31 3c 85 9b 70 bd 6d 4e 99 bd f0 d1 18 bd
       0.010852027 -0.058742065 -0.07485662 -0.037309587
0001b0 94 64 fe bc c9 49 57 3b eb 5d 71 bd c4 df 03 3d
       -0.031053819 0.0032850376 -0.058927458 0.03219582
0001c0 59 92 db bc 6e 42 0f 3d 3f ef c3 bc 1f 9e 27 3d
       -0.026803182 0.03497546 -0.023917792 0.04092228
0001d0 93 30 f0 3c 4b 41 a1 3c 13 a8 07 bc 7e e3 62 3d
       0.029320037 0.019684454 -0.008279818 0.055392735
0001e0 5d 21 27 bd 19 6c 26 bd 11 5e ae 3d 5b 4c d6 3d
       -0.040803302 -0.040630434 0.085140355 0.104637824
0001f0 9c d4 13 3d f6 32 0a bd 31 2c 92 3a fd 57 c2 3c
       0.036091432 -0.033740006 0.0011152086 0.023723597
000200 72 bb 94 3d df f8 01 bd 79 4b 50 bd 50 10 77 3d
       0.07262315 -0.031731483 -0.050853226 0.06031829
000210 d6 aa d0 3c 25 c0 76 3b bf 2d 95 bb f9 94 2a bd
       0.025472086 0.0037651148 -0.0045525725 -0.041645978
000220 93 94 09 bc b7 0b a9 3c f7 f9 ec bd 93 78 60 bd
       -0.008397239 0.020635469 -0.115711145 -0.05480249
000230 9a fa 4f bc 93 99 98 bc 2d 33 7f bd bd 71 b7 bc
       -0.012694025 -0.018627917 -0.062304664 -0.022393102
000240 f5 5b 78 bc 88 52 8c 3d 1e ac 1d bd 37 f0 4e bd
       -0.015158643 0.06851679 -0.038494222 -0.050522055
000250 82 f1 15 bd 90 36 9c bc 85 62 bc bc a8 b4 8f 3c
       -0.036607273 -0.019068986 -0.022996197 0.017542198
000260 10 de 81 3c e1 e1 4f bc 59 eb d1 ba a3 b2 5a bd
       0.015852958 -0.012688131 -0.0016015574 -0.053393018
000270 8e be b6 3d ae 81 23 bd 62 06 d3 3c 9e 88 a1 bd
       0.08923064 -0.039918594 0.02575988 -0.07887386
000280 cc f3 c0 3d 28 88 e8 bc eb b4 17 3d 87 9d 26 3d
       0.094215006 -0.028385237 0.03703777 0.040677574
000290 f6 4d dc bc 62 69 1c 3d 45 f6 9c bd ba cc 6b 3c
       -0.026892643 0.03818644 -0.0766416 0.014392072
0002a0 0b 6e c2 3b c7 0f 24 3c d0 7a 5c 3b 3a 7a b8 3c
       0.0059335283 0.010013527 0.0033642538 0.02251922
0002b0 88 50 26 bd ad ad d5 3b b7 1d ef bc 30 68 b1 3a
       -0.040604144 0.006520948 -0.029188974 0.0013535079
0002c0 2e 57 33 bd d7 ed aa bc 0f 96 37 3d 33 c8 71 bc
       -0.043784313 -0.020865364 0.04482084 -0.014757204
0002d0 f8 5c 45 bd 30 a7 98 3c d6 01 7d 3c 1f 51 d1 bc
       -0.048184365 0.018634409 0.015442332 -0.025551377
0002e0 d4 da 16 3c 5c ed cb 3b 6d 7b 75 3b 31 9b a3 3c
       0.009207446 0.006223364 0.00374576 0.019971462
0002f0 18 06 71 bc 55 78 c2 3b 9f 00 85 3d d1 1f c8 3c
       -0.0147109255 0.005934755 0.06494259 0.024429234
000300 e2 8f c8 3c ef e6 8f 3d 3e 91 31 bd 2a 04 b9 3c
       0.024482671 0.07026469 -0.043351404 0.022584993
000310 56 c1 0b 3c 93 ac 3f 39 30 78 ce 3d 12 b2 56 3d
       0.008529982 0.00018279468 0.10081518 0.052415915
000320 75 71 31 bc 2e 49 e5 38 18 14 15 3d f5 ad 11 bd
       -0.010830273 0.00010933202 0.036396116 -0.03556629
000330 4d 1b 3b bd de b9 06 bb 76 24 32 bd d5 63 ea 3c
       -0.045680333 -0.0020557563 -0.043491803 0.028612057
000340 97 58 88 bc 75 41 81 bc 92 32 12 bd 15 5b db bc
       -0.016643805 -0.015778283 -0.03569276 -0.02677683
000350 38 22 e1 3c 26 d8 45 3c 04 e1 7d bc 13 7e 4b 3d
       0.027482137 0.01207546 -0.015495542 0.04968078
000360 5d 2e b5 bc 4b d3 bd 3d ca 34 f3 3d 6f 05 79 3d
       -0.022116834 0.092688166 0.11875303 0.060796198
000370 20 8d ed bc fe ad 46 bc 9f 3e b8 bc d5 df c4 3c
       -0.028997958 -0.012126444 -0.022490798 0.024032513
000380 51 28 73 ba 66 1c ee bb 9d 80 cb bc 48 12 1e 3d
       -0.0009275722 -0.007266569 -0.024841601 0.038591653
000390 2e 63 93 bd db c0 04 be bb 11 25 3d 7c 51 64 3d
       -0.071966514 -0.12964194 0.040300112 0.055741772
0003a0 33 ff fc bc a9 87 d3 3b 3f 05 98 3c 99 80 9f bc
       -0.030883407 0.006455381 0.018557189 -0.0194705
0003b0 8a b3 4e 3c ba 7b ff 3a fd eb 27 3d 45 76 e4 bb
       0.012616048 0.001949183 0.04099654 -0.0069721066
0003c0 08 68 f1 bc a9 1a c1 3c 8d d0 44 3d 72 0a 5d 3d
       -0.029468551 0.023572283 0.048050452 0.05396504
0003d0 9b a3 a4 3b 1a 17 22 3d b4 32 67 bc 59 da c8 3c
       0.005024386 0.039572813 -0.01411121 0.024518179
0003e0 bb f7 8e bb 8a ca 56 3d e3 ba b6 bc a2 a7 33 bc
       -0.004363028 0.05243925 -0.022305911 -0.01096526
0003f0 4f d1 d3 3c 27 25 09 3c 2a 30 7f 3d 1a d7 7d 3c
       0.025856642 0.008370674 0.062301792 0.015493179

encoder_layer.enc_self_attn.fc.bias f4 [80]
000000 ea 3c 79 be f3 46 65 be dd ba 18 be 53 d3 1d be
       -0.24339643 -0.22390346 -0.14915033 -0.15412645
000010 ab a1 82 3d c5 ba a0 bc 67 0c 04 bf ca 43 c8 bd
       0.06378492 -0.019620309 -0.51581424 -0.09778555
000020 5c c1 60 bd f1 9f 04 bf 68 6b f1 bd 10 60 a0 3e
       -0.054871902 -0.5180655 -0.11788064 0.3132329
000030 02 f4 a5 3d 24 03 a8 3e 78 b8 2a bd 24 8d dc be
       0.081031814 0.32814896 -0.04167983 -0.43076432
000040 8e 4d d3 be e5 80 02 3f c3 be 03 be f8 00 4b 3e
       -0.41270107 0.5097793 -0.12865739 0.19824588
000050 a9 5d b0 3e 24 9d e4 3e 92 80 02 bd e1 88 6d bd
       0.34446457 0.4465114 -0.031860895 -0.057991866
000060 52 42 80 3d 05 b0 b3 3e cf 85 56 be ab 76 7b be
       0.062626496 0.3509523 -0.20949481 -0.24556987
000070 96 dc f8 be 61 c2 d0 3d a0 bf 9e 3e 1b 12 3f 3e
       -0.48605794 0.10193325 0.31005573 0.1865925
000080 35 59 84 3d b7 d9 00 3f 11 f8 59 bd 91 7a 42 3c
       0.064623274 0.50332206 -0.05321509 0.011870042
000090 d0 52 23 3f 36 86 7b 3d 8d f5 0f 3f da 3f 84 3e
       0.63798237 0.06140729 0.56234056 0.25829965
0000a0 f2 2e 85 3e 42 33 35 3d d8 77 cd be 52 80 23 be
       0.2601238 0.044238336 -0.40130496 -0.15966919
0000b0 0c ba 48 3e 2b 06 65 be 46 fd ec 3d 84 8f d6 bc
       0.19602221 -0.22365634 0.115717456 -0.02619148
0000c0 82 50 d0 3e d4 89 7a 3e 40 a8 b0 3e 2d e7 de bd
       0.40686423 0.2446664 0.34503365 -0.10883937
0000d0 18 b3 4a bd 84 9f ce 3e e9 20 f6 bc 86 59 06 bf
       -0.049487203 0.40356076 -0.03004499 -0.5248035
0000e0 22 87 03 bf 7a 35 cf 3e 2f 94 6a 3e 8d 29 f4 bb
       -0.5137807 0.40470487 0.2290809 -0.0074512423
0000f0 23 3e d1 3e 23 e0 ed bd e4 7e c7 bd cf d5 ba be
       0.4086772 -0.11615016 -0.09740999 -0.36491248
000100 4d b0 11 bf 83 a9 85 3e 94 46 c7 be 86 c3 64 be
       -0.5690964 0.2610589 -0.38921034 -0.22340211
000110 84 30 28 be b7 cf 02 bf 3c 5f af be 8e 6c c6 3e
       -0.16424757 -0.510982 -0.34252346 0.38754696
000120 13 6a 6e 3e 6b 52 10 3f 07 b9 82 be 85 41 27 3f
       0.23282652 0.5637576 -0.2553179 0.6533435
000130 bd 4d 4a bf 1c 88 ea 3c cb 34 5b bc e2 d7 8c bd
       -0.7902487 0.028629355 -0.013379286 -0.06877114

encoder_layer.Norm1.weight f4 [80]
000000 78 c1 48 3f 8b 7e 10 3f b5 b5 91 3f 15 0e 90 3f
       0.7842021 0.5644309 1.1383578 1.1254297
000010 1b 80 88 3f ff 25 8e 3f 94 89 86 3f b9 a7 8a 3f
       1.0664095 1.1105345 1.0510736 1.0832435
000020 02 77 70 3f 2c d8 8f 3f c1 67 45 3f 65 e4 7c 3f
       0.9393159 1.1237845 0.7711144 0.98786
000030 6a 40 5c 3f c6 ba 82 3f df c5 89 3f 1f 4d 96 3f
       0.8603579 1.0213249 1.076351 1.1742285
000040 0a 56 95 3f 87 13 88 3f 2c be 7a 3f 61 de 83 3f
       1.1666882 1.0630959 0.9794643 1.030224
000050 74 80 89 3f b8 4d 8a 3f a0 7c 89 3f cc 2c 94 3f
       1.0742326 1.0804968 1.0741158 1.1576171
000060 1b b3 43 3f af 19 64 3f 55 38 79 3f 59 43 46 3f
       0.7644517 0.8910169 0.9735158 0.77446514
000070 16 43 59 3f 24 62 86 3f 7e c3 84 3f a9 9d 9b 3f
       0.8486799 1.04987 1.037216 1.2157489
000080 e8 26 8a 3f 14 f5 9b 3f 66 61 62 3f 55 70 7d 3f
       1.0793123 1.2184167 0.8842987 0.9899953
000090 f2 c6 90 3f 70 2e 93 3f 32 f1 78 3f 7a a6 92 3f
       1.1310713 1.1498547 0.97243035 1.1457055
0000a0 32 78 7d 3f 05 3a 7a 3f c1 13 9d 3f 9a cb 8d 3f
       0.9901153 0.9774478 1.2271653 1.1077759
0000b0 52 33 a4 3f 1e 43 93 3f 2c aa 7c 3f b6 0d 8e 3f
       1.2828162 1.1504858 0.9869716 1.1097934
0000c0 ad c0 3c 3f 9f 6a 97 3f 07 45 86 3f 84 f3 6f 3f
       0.737315 1.1829413 1.0489815 0.9373095
0000d0 3f 19 40 3f fb 76 93 3f bd 7c 4b 3f 5f f4 84 3f
       0.7503852 1.1520685 0.7948721 1.0387076
0000e0 eb a0 86 3f fa 13 80 3f 8d 05 88 3f 7c 4b 6e 3f
       1.0517858 1.0006096 1.0626694 0.9308393
0000f0 3f 37 79 3f 0d 48 95 3f 43 72 82 3f c9 8e 96 3f
       0.97349924 1.1662613 1.019112 1.1762325
000100 df d6 87 3f 7a 05 6d 3f 4d d3 80 3f 79 47 6e 3f
       1.0612448 0.9258648 1.0064484 0.9307781
000110 d4 01 70 3f 87 1e 72 3f cf d4 4d 3f d0 56 65 3f
       0.9375279 0.9457783 0.80402845 0.8958559
000120 9c 80 81 3f bb 14 89 3f ff 55 83 3f 33 24 94 3f
       1.0117373 1.0709451 1.0260619 1.1573547
000130 11 05 aa 3f 41 4a 86 3f 6e 0e 9a 3f 3b 41 79 3f
       1.3282796 1.049141 1.2035654 0.9736516

encoder_layer.Norm1.bias f4 [80]
000000 4e be cc bd ba af 1c be df d9 2c 3d 9a cf fc bd
       -0.09997235 -0.1530141 0.042199966 -0.12344284
000010 92 48 2d 3d 6a 96 1a 3d 95 85 b9 be 35 84 6e bc
       0.042305537 0.037741102 -0.36234728 -0.014557888
000020 66 a7 1a be eb 70 75 be 53 2f 70 be e3 91 45 3e
       -0.1510292 -0.23968856 -0.23455553 0.19293933
000030 82 60 33 bd 52 5b ac 3e 55 8f 8e bc bb 8c 0c be
       -0.04379321 0.33663422 -0.01740233 -0.1372556
000040 b5 15 6a be 3e 86 9a 3e 7c b9 1a be f6 44 9d bd
       -0.22859843 0.30180544 -0.15109819 -0.07679169
000050 9d 3f 05 3e 39 14 71 3e d5 c8 15 be 6f 37 20 3e
       0.13012548 0.2354287 -0.14627393 0.15646146
000060 84 2c 9e 3d 56 48 7e 3e 8f 8e 2b be fa 7b 99 be
       0.077233344 0.24832281 -0.167536 -0.299774
000070 30 05 80 be 5d 2d 47 3e fc b3 27 3e ee 6e 4b 3d
       -0.25003958 0.19450898 0.16377252 0.049666338
000080 d2 1b f7 ba 6d 8a 98 3e a2 58 3c 3e a2 1c cf bb
       -0.0018852896 0.2979311 0.18393186 -0.006320552
000090 42 d4 8d 3e 68 93 3a bd 5d b8 87 3e 74 77 02 3e
       0.27701002 -0.045550734 0.26507846 0.1274088
0000a0 8a 66 fc 3c e2 04 0a bd 60 aa 0b bd b4 8a 35 be
       0.030810613 -0.033696063 -0.03409803 -0.17728692
0000b0 96 0f 45 3e e6 61 8c bc 7c 6a 2c bd 62 bc b2 3c
       0.19244227 -0.017136525 -0.04209374 0.021818344
0000c0 30 20 c3 3e ca 07 2d 3e 0c 49 05 3e 21 61 10 be
       0.38110495 0.16897503 0.13016146 -0.14099552
0000d0 55 cb 7c 3d 99 02 a4 3d e8 c7 2a bd 34 07 ac be
       0.06171735 0.08008308 -0.04169455 -0.33599246
0000e0 1a f8 ac be 2c e2 55 3e 16 53 ff 3d 7a 2d f5 bd
       -0.33783036 0.20887059 0.12467019 -0.119715646
0000f0 a1 6d 9d 3e 68 70 15 be 9c a1 ea bd ff 9c 68 be
       0.30747703 -0.14593661 -0.11456606 -0.2271614
000100 56 b2 ba be 73 2f 24 3e 98 5c c0 be 52 79 c1 bd
       -0.36464185 0.16033725 -0.37570643 -0.09446968
000110 7a b9 56 be f8 97 c1 be 05 e3 b1 be 69 1b af 3e
       -0.20969191 -0.37811255 -0.34743515 0.342006
000120 23 67 1a 3e d8 6b b4 3e ed a8 aa bd d7 91 a8 3e
       0.15078406 0.35238528 -0.08333001 0.32923767
000130 75 17 ef be 5c 70 0c bd 69 51 44 3d 41 c6 e6 bd
       -0.46697584 -0.03428684 0.0479292 -0.11268283

encoder_layer.Norm2.weight f4 [80]
000000 00 00 80 3f 00 00 80 3f 00 00 80 3f 00 00 80 3f
       1.0 1.0 1.0 1.0
000010 00 00 80 3f 00 00 80 3f 00 00 80 3f 00 00 80 3f
       1.0 1.0 1.0 1.0
000020 00 00 80 3f 00 00 80 3f 00 00 80 3f 00 00 80 3f
       1.0 1.0 1.0 1.0
000030 00 00 80 3f 00 00 80 3f 00 00 80 3f 00 00 80 3f
       1.0 1.0 1.0 1.0
000040 00 00 80 3f 00 00 80 3f 00 00 80 3f 00 00 80 3f
       1.0 1.0 1.0 1.0
000050 00 00 80 3f 00 00 80 3f 00 00 80 3f 00 00 80 3f
       1.0 1.0 1.0 1.0
000060 00 00 80 3f 00 00 80 3f 00 00 80 3f 00 00 80 3f
       1.0 1.0 1.0 1.0
000070 00 00 80 3f 00 00 80 3f 00 00 80 3f 00 00 80 3f
       1.0 1.0 1.0 1.0
000080 00 00 80 3f 00 00 80 3f 00 00 80 3f 00 00 80 3f
       1.0 1.0 1.0 1.0
000090 00 00 80 3f 00 00 80 3f 00 00 80 3f 00 00 80 3f
       1.0 1.0 1.0 1.0
0000a0 00 00 80 3f 00 00 80 3f 00 00 80 3f 00 00 80 3f
       1.0 1.0 1.0 1.0
0000b0 00 00 80 3f 00 00 80 3f 00 00 80 3f 00 00 80 3f
       1.0 1.0 1.0 1.0
0000c0 00 00 80 3f 00 00 80 3f 00 00 80 3f 00 00 80 3f
       1.0 1.0 1.0 1.0
0000d0 00 00 80 3f 00 00 80 3f 00 00 80 3f 00 00 80 3f
       1.0 1.0 1.0 1.0
0000e0 00 00 80 3f 00 00 80 3f 00 00 80 3f 00 00 80 3f
       1.0 1.0 1.0 1.0
0000f0 00 00 80 3f 00 00 80 3f 00 00 80 3f 00 00 80 3f
       1.0 1.0 1.0 1.0
000100 00 00 80 3f 00 00 80 3f 00 00 80 3f 00 00 80 3f
       1.0 1.0 1.0 1.0
000110 00 00 80 3f 00 00 80 3f 00 00 80 3f 00 00 80 3f
       1.0 1.0 1.0 1.0
000120 00 00 80 3f 00 00 80 3f 00 00 80 3f 00 00 80 3f
       1.0 1.0 1.0 1.0
000130 00 00 80 3f 00 00 80 3f 00 00 80 3f 00 00 80 3f
       1.0 1.0 1.0 1.0

encoder_layer.Norm2.bias f4 [80]
000000 00 00 00 00 00 00 00 00 00 00 00 00 00 00 00 00
       0.0 0.0 0.0 0.0
000010 00 00 00 00 00 00 00 00 00 00 00 00 00 00 00 00
       0.0 0.0 0.0 0.0
000020 00 00 00 00 00 00 00 00 00 00 00 00 00 00 00 00
       0.0 0.0 0.0 0.0
000030 00 00 00 00 00 00 00 00 00 00 00 00 00 00 00 00
       0.0 0.0 0.0 0.0
000040 00 00 00 00 00 00 00 00 00 00 00 00 00 00 00 00
       0.0 0.0 0.0 0.0
000050 00 00 00 00 00 00 00 00 00 00 00 00 00 00 00 00
       0.0 0.0 0.0 0.0
000060 00 00 00 00 00 00 00 00 00 00 00 00 00 00 00 00
       0.0 0.0 0.0 0.0
000070 00 00 00 00 00 00 00 00 00 00 00 00 00 00 00 00
       0.0 0.0 0.0 0.0
000080 00 00 00 00 00 00 00 00 00 00 00 00 00 00 00 00
       0.0 0.0 0.0 0.0
000090 00 00 00 00 00 00 00 00 00 00 00 00 00 00 00 00
       0.0 0.0 0.0 0.0
0000a0 00 00 00 00 00 00 00 00 00 00 00 00 00 00 00 00
       0.0 0.0 0.0 0.0
0000b0 00 00 00 00 00 00 00 00 00 00 00 00 00 00 00 00
       0.0 0.0 0.0 0.0
0000c0 00 00 00 00 00 00 00 00 00 00 00 00 00 00 00 00
       0.0 0.0 0.0 0.0
0000d0 00 00 00 00 00 00 00 00 00 00 00 00 00 00 00 00
       0.0 0.0 0.0 0.0
0000e0 00 00 00 00 00 00 00 00 00 00 00 00 00 00 00 00
       0.0 0.0 0.0 0.0
0000f0 00 00 00 00 00 00 00 00 00 00 00 00 00 00 00 00
       0.0 0.0 0.0 0.0
000100 00 00 00 00 00 00 00 00 00 00 00 00 00 00 00 00
       0.0 0.0 0.0 0.0
000110 00 00 00 00 00 00 00 00 00 00 00 00 00 00 00 00
       0.0 0.0 0.0 0.0
000120 00 00 00 00 00 00 00 00 00 00 00 00 00 00 00 00
       0.0 0.0 0.0 0.0
000130 00 00 00 00 00 00 00 00 00 00 00 00 00 00 00 00
       0.0 0.0 0.0 0.0
